pytorch/new_mode.pt (torch, 104873 bytes, 10 tensors)

weight f4 [10, 1, 5, 5]
00000000: 3e3a 95bf 58c3 a5bf 43c0 9bbf 2a12 aabf
00000010: ea1e b0bf fdc6 82bf 28d2 76bf 31d0 aabf
00000020: 62db 8abf 2ccc a9bf aee6 57bf e6b7 85bf
00000030: 4400 68bf e817 92bf b0cd babf f157 21bf
00000040: 3bd6 20bf fd98 1dbf a752 94bf da45 8fbf
00000050: 77b1 d7be 3d66 94be 379b dbbe 4238 13bf
00000060: 174d 80bf 54a5 55c0 e178 52c0 ccbf 43c0
00000070: 4854 2ec0 c4c7 28c0 7a6a 6dc0 a640 66c0
00000080: 8b07 57c0 94f8 4ec0 2bc9 33c0 900c 85c0
00000090: a4df 86c0 206f 7cc0 8ec2 66c0 1db9 49c0
000000a0: bf37 98c0 b99c 92c0 c1d3 8ac0 6240 71c0
000000b0: a889 53c0 ebc8 98c0 4e1b 98c0 e815 8ec0
000000c0: e2ee 73c0 d9bb 51c0 8d9e 68bf 81e9 95bf
000000d0: 73a4 a9bf 81fa c0bf 6995 c6bf a592 99bf
000000e0: de92 9abf b451 c9bf f1d0 e0bf 1d43 ebbf
000000f0: 459d bbbf d29e c0bf 2973 01c0 2403 ffbf
00000100: ca78 0ec0 af83 f6bf 00ef fabf d75a 13c0
00000110: 793e 09c0 c153 09c0 c667 ebbf 4a0c 00c0
00000120: a47d fdbf 3a7a 0bc0 ed27 0cc0 e21a 35c1
00000130: e345 37c1 5b03 35c1 ba28 2ac1 5278 1dc1
00000140: e14a 22c1 4c1f 22c1 5686 21c1 3d58 1ec1
00000150: acc9 12c1 8651 14c1 695f 0ec1 6f4c 12c1
00000160: b7c8 11c1 8451 08c1 adbd e2c0 5b81 e2c0
00000170: 753f f2c0 5826 fec0 9522 eac0 3f3a a0c0
00000180: dd92 9ac0 43e3 aec0 240c bcc0 42b6 bec0
00000190: c1a9 10c0 16c6 14c0 2cfb 2cc0 acda 3ac0
000001a0: a0de 4cc0 b282 09c0 082b 05c0 4961 21c0
000001b0: 04ee 36c0 5cb2 46c0 895a cdbf bf68 f7bf
000001c0: f25e 14c0 5349 33c0 b1c8 38c0 def2 bcbf
000001d0: c51b c6bf ff22 02c0 69ba 1bc0 7818 28c0
000001e0: 6236 b1bf c122 bfbf a2b3 edbf dd04 0bc0
000001f0: dd98 21c0 26fd 56bf 48aa 66bf fa73 7bbf
00000200: 70c2 84bf d673 7ebf 1f66 82bf 45b4 91bf
00000210: 1d63 b2bf edc6 9cbf b5d2 b3bf 75ff afbf
00000220: cd0c a1bf f6d1 a0bf daf4 b8bf d513 bebf
00000230: 84b0 bcbf 97c7 b7bf 6a08 cbbf e257 b2bf
00000240: 145d d3bf c5bb d8bf 3e8c d1bf bd1c e2bf
00000250: 0408 dabf f1c4 c9bf 59d9 c4bf 6e47 d4bf
00000260: ec84 cdbf 6ee7 c7bf 5c20 cebf d94a b7bf
00000270: 524f b6bf 9074 c6bf 65ab bbbf c3b3 c2bf
00000280: 92ac a8bf dbfd aebf dd26 bbbf 3717 a2bf
00000290: 3e44 c5bf 929d a9bf 8d33 90bf 3c61 bebf
000002a0: 3765 9bbf b9b9 bdbf 616e 8fbf 5b3d 81bf
000002b0: dd65 b1bf c8b2 bbbf 371e bfbf d3ec c9be
000002c0: 9959 35be 071e 1abd d28c 7abe b564 4dbe
000002d0: 9e27 64be 1c09 6dbd ebbd 44be 6422 62bd
000002e0: 426b 38be 3b40 a2bd 8ef3 e7bd 12f5 1bbe
000002f0: 92bb 0d3d a58c 74be 8c2b 5dbe 7674 b83c
00000300: a0ac 9c3c 66b2 29be fc8b debd c93c 1abe
00000310: 83cf 1fbe 6547 63bd 7056 33be 7bbf ccbd
00000320: 8c72 0dc0 0dfc 25c0 19da 22c0 d08a 2fc0
00000330: 803c 29c0 bf43 11c0 9979 1fc0 4499 34c0
00000340: 034b 40c0 14bf 41c0 a982 1ac0 cabe 1ac0
00000350: ab05 3cc0 46a4 45c0 b78e 36c0 fe18 1bc0
00000360: 46ef 32c0 3a1e 3bc0 2ebd 3cc0 ede5 42c0
00000370: eca6 17c0 be4e 24c0 62cd 3ec0 d9b2 36c0
00000380: 3e60 35c0 6099 8cbf 4199 53bf ef1e 4abf
00000390: 4238 23bf c9d0 02bf 0f33 43bf 885e 68bf
000003a0: 57a8 17bf 86c5 16bf 74c8 29bf 02c2 2fbf
000003b0: 15e9 15bf dd6a 45bf 5c20 5abf 42b6 3ebf
000003c0: c226 0fbf 5502 57bf 8de2 23bf 4c09 36bf
000003d0: 78a3 38bf 2f9d 3ebf 3399 2dbf e34a 56bf
000003e0: c6bc 63bf 4efd 4dbf
-1.1658399 -1.2950239 -1.2168049 -1.3286793 -1.3759434 -1.0216976 -0.96414423 -1.3344785
-1.08482 -1.3265433 -0.84336364 -1.0446746 -0.90625405 -1.1413546 -1.4594021 -0.6302481
-0.6282689 -0.61561567 -1.1587723 -1.1193192 -0.42127582 -0.28984252 -0.42891857 -0.5750772
-1.0023526 -3.3382158 -3.2886279 -3.0585814 -2.7238941 -2.6371927 -3.7096238 -3.5976958
-3.3598354 -3.233922 -2.8091533 -4.1577835 -4.2148 -3.9442825 -3.6056247 -3.1519234
-4.756805 -4.581631 -4.338349 -3.7695546 -3.3052769 -4.774526 -4.753333 -4.440174
-3.8114552 -3.2770903 -0.9086693 -1.1711885 -1.3253311 -1.5076448 -1.5514346 -1.1997877
-1.207607 -1.5728059 -1.7563764 -1.8379856 -1.465737 -1.5048468 -2.0226538 -1.9922833
-2.2261224 -1.9258937 -1.9604187 -2.3024194 -2.144438 -2.145737 -1.8391044 -2.00075
-1.9803967 -2.179335 -2.1899369 -11.319063 -11.454562 -11.313319 -10.634943 -9.841875
-10.143281 -10.132641 -10.095297 -9.896543 -9.174236 -9.269903 -8.8982935 -9.143661
-9.111503 -8.519901 -7.085654 -7.0782905 -7.570246 -7.9421806 -7.3167214 -5.00711
-4.8304276 -5.465242 -5.876482 -5.9597483 -2.260361 -2.3245902 -2.7028303 -2.9195967
-3.201088 -2.148602 -2.0807514 -2.5215628 -2.8582773 -3.1046362 -1.6043254 -1.9328841
-2.318295 -2.8013504 -2.8872492 -1.4761617 -1.5477225 -2.033386 -2.4332526 -2.6264935
-1.3844721 -1.4932481 -1.8570445 -2.1721718 -2.524955 -0.83980024 -0.9010358 -0.9822384
-1.0371838 -0.993955 -1.0187415 -1.1383139 -1.3936497 -1.2248207 -1.4048678 -1.3749834
-1.2582031 -1.2564075 -1.4449723 -1.4849802 -1.4741368 -1.4357785 -1.5861943 -1.393307
-1.651278 -1.6932303 -1.6370924 -1.766502 -1.7033696 -1.5763227 -1.5378829 -1.6584299
-1.605619 -1.5617502 -1.6103625 -1.4319717 -1.4242957 -1.5504322 -1.466168 -1.5211109
-1.3177664 -1.367122 -1.4621235 -1.2663335 -1.5411451 -1.3251212 -1.1265732 -1.4873424
-1.2140263 -1.4822303 -1.120556 -1.0096849 -1.3859211 -1.4663935 -1.4931096 -0.39438495
-0.1770996 -0.037626293 -0.24467781 -0.20057948 -0.22280738 -0.057870016 -0.19213073 -0.05520858
-0.18009666 -0.07922407 -0.11325751 -0.15230206 0.03460271 -0.23881777 -0.21598643 0.02251647
0.019125283 -0.1657196 -0.10866544 -0.1506225 -0.15606503 -0.05548801 -0.17513442 -0.099974595
-2.2101164 -2.593509 -2.5445616 -2.7428474 -2.6443176 -2.26976 -2.4917967 -2.8218546
-3.0045784 -3.0272875 -2.4142249 -2.4178948 -2.937846 -3.0881515 -2.8524606 -2.4234004
-2.795854 -2.92372 -2.9490466 -3.0452836 -2.369563 -2.567306 -2.9812856 -2.854666
-2.8339992 -1.0984306 -0.8265572 -0.7895345 -0.6375772 -0.5109983 -0.76249784 -0.90769243
-0.5924124 -0.58895147 -0.6632149 -0.6865541 -0.5855878 -0.77116185 -0.85205626 -0.74496853
-0.55918515 -0.83987933 -0.64017564 -0.71107936 -0.72124434 -0.74458593 -0.6781189 -0.8370802
-0.8895992 -0.8046464

bias f4 [10]
00000000: 6587 7dbd 656a 51bd af11 9bbc 6843 35be
00000010: f684 62bd 469e 283e 687e c8bd a041 cebd
00000020: cc28 60bd 27df 153e
-0.0618967 -0.051126856 -0.01892933 -0.17701495 -0.055302583 0.16466627 -0.09789735 -0.10071111
-0.054726407 0.14635907

weight f4 [20, 10, 5, 5]
00000000: f60d b5be bbfa 8abe 2e9b 04be c0a2 2f3e
00000010: 12e2 843e 3b0c 95be a4e1 05be 913c 69bc
00000020: 993d 073c d5fa 2a3d e085 90be 383a 22be
00000030: fb7c 4bbe c8c1 44be d579 be3d 2d30 87be
00000040: 78dc 8f3c 373d 8f3d 5b1e 0d3d 665e 14bd
00000050: 11c8 8b3d 2527 0c3d 2843 983d 59f5 3f3d
00000060: 12a4 70bd af6d f9be 6832 a0be 2373 ddbe
00000070: 9dbc 12bf 494c 66bf 6758 ccbe f28a d4be
00000080: 3ac2 a0be 3030 b1be f952 ebbe 4c4c d9be
00000090: 67b3 b3be 5587 93be a280 77be c9cd d1be
000000a0: a31f e9be 2cad f5be 21cd 16bf c086 1ebf
000000b0: e411 34bf 27b2 27bf b83b 1fbf ba0d 2dbf
000000c0: 6072 66bf 797b 73bf 3220 babd faef d03d
000000d0: bed4 863e a91e 853c 7149 433d 6b24 0abc
000000e0: 20c6 c23d b935 183e 6e82 213e 92ca 473e
000000f0: 1fd8 1f3e cd4b d03d 9674 a5bc 1f15 2d3e
00000100: e95c 363e 0de5 24bd 2558 9c3c f958 75bd
00000110: 8e96 a7bd 84bf a93d 1812 89bd 8254 ddbd
00000120: d1fa edbd 756a 67be 662f d2bd 60c6 46c0
00000130: 811b 3ec0 15fb 46c0 8a7d 33c0 fcf1 29c0
00000140: 580c 77c0 5e92 64c0 ff2f 6fc0 8e25 5ac0
00000150: 82e4 34c0 d0fd 67c0 56df 68c0 28ed 72c0
00000160: 6723 64c0 2d9e 47c0 1733 58c0 ab28 64c0
00000170: 380d 59c0 1478 4ac0 78dd 4bc0 1b14 3fc0
00000180: eab1 66c0 a48a 6fc0 18c6 75c0 9b2f 7cc0
00000190: d609 9cbc 12c7 32be 58ce 50be bb8b 15be
000001a0: 00d7 48bd 473d 2bbe b760 71be 15d3 6dbe
000001b0: 85fe 2cbe 7105 3ebe 24e8 da3c a2b8 01be
000001c0: 7c1b 36be ddd9 52be 9f1c 57be 3ece b43d
000001d0: baf2 d13d bca1 263e fadc 8b3d 3819 7b3c
000001e0: b569 203e c4a1 5b3e 0b66 373e 6f71 3d3e
000001f0: b259 533e 8187 3abe 531a c03d e506 553e
00000200: 11d7 5e3e d3e8 a43d 2dce 29bd e0da 1d3e
00000210: e720 8e3e 1656 b03d 396e 023e ea47 d53d
00000220: e685 403e d971 af3d ee18 593d ca46 863d
00000230: 7af6 343d 901b 943d c7ba 223d 63c0 0abd
00000240: 0000 98bd 38e3 8e3d 57a0 773c a167 73bd
00000250: 1bbb 1cbe 50cf e2bd 42dc 40be 83b2 e3be
00000260: 10b2 86be 731c 3abe 709b fb3d d552 abbe
00000270: 1e73 8dbe be40 c9bd 3fad 81be 9483 97be
00000280: b81a a1be 12b0 b1bd ecc2 0dbc 5ecf b1be
00000290: 4b06 d9be f4d5 9abe d96c 6c3b b4a1 5d3e
000002a0: 820e 753e 0650 dc3d 4d40 1abe 4a9c 643e
000002b0: 9eeb 753e d1ad 0a3f 2d93 883e 3c77 b73b
000002c0: 64fa 05bc 4816 0ebd 9541 79bd 98d0 d93b
000002d0: 8148 973d a410 c93c f0b5 56bc 9cbe 683d
000002e0: b0a2 f13c 6372 05bd 768d 89bd ff48 8bbc
000002f0: 6fee 873d 9bd8 43bd 3e60 c5bc ec85 193b
00000300: 66df f7bc 16cf 653d 7ff3 5dbd e080 893a
00000310: 03df c73a 5c59 7f3d 64ec 8a3d 787f ea3c
00000320: f2f6 d8be e706 cebd bbf2 583e 04b4 c1bd
00000330: d4fc 03be 0f83 83be 1b9f 103d 4b1b fb3d
00000340: c8d0 973b 95b1 f53d 00e9 d9bd 4841 683e
00000350: 99bb 633e 3894 873e 0d16 8c3e 80b8 f5bd
00000360: 61c2 b33d a82c 333d bf32 5bbd 9bfe e5bd
00000370: 39ba a4bd 0223 20be 5ceb 97be 2495 8cbe
00000380: dde1 97be cf0d 76bd 5174 6ebe f279 54be
00000390: e66b 8abd 8157 3cbd f992 28be 64fe d2bd
000003a0: 2dcf 2c3d 87fb 8cbd af5c 41be a45e 3abd
000003b0: 5ed5 65bd ad82 f83d ca1d 883d dc1e 50be
000003c0: 4afb 52be 7fe6 e93c 1f89 b2ba 4025 2b3e
000003d0: 4a68 e3bc 6331 52be 52d3 44bd 0eca bfbc
000003e0: 1cbe 96bd 1630 703d 3cf2 283e 0c30 a73b
000003f0: 7c6e 843b e9e7 2d3d eb6b 28be 1194 363e
-0.35362214 -0.27144417 -0.12949821 0.17151928 0.25953728 -0.29110894 -0.13074356 -0.014235632
0.008254432 0.04174312 -0.2822714 -0.15842521 -0.19871895 -0.19214547 0.09300581 -0.26403943
0.017561182 0.06994098 0.034452777 -0.036222838 0.06825269 0.03421702 0.07434684 0.04686484
-0.05875022 -0.48716494 -0.31288457 -0.43251905 -0.5731905 -0.8996015 -0.39911196 -0.41512257
-0.31398183 -0.34607077 -0.4596174 -0.42441022 -0.3509781 -0.28814188 -0.24170163 -0.40977314
-0.4553195 -0.47983682 -0.5890675 -0.6192436 -0.703398 -0.65506214 -0.622005 -0.6759907
-0.9001827 -0.9511028 -0.09088172 0.10202022 0.26334184 0.016249971 0.04767746 -0.008431534
0.095104456 0.14864244 0.15772411 0.19510868 0.15609787 0.10170708 -0.020197194 0.16902588
0.1780888 -0.040257502 0.019085 -0.059899304 -0.08183013 0.08288482 -0.06692904 -0.10807134
-0.11620105 -0.22599204 -0.10262947 -3.1058578 -2.9704287 -3.1090748 -2.8045373 -2.6553946
-3.8601284 -3.5714335 -3.7373044 -3.4085422 -2.826447 -3.6248665 -3.6386313 -3.7957249
-3.5646608 -3.1190293 -3.3781183 -3.5649822 -3.3914318 -3.163579 -3.1853924 -2.9856021
-3.604609 -3.742837 -3.8402157 -3.9404056 -0.019047659 -0.17458752 -0.20391214 -0.14604084
-0.049033165 -0.16722594 -0.2357205 -0.23225053 -0.16893966 -0.18556763 0.026722021 -0.12668088
-0.17783922 -0.20590921 -0.21007012 0.088284 0.102513745 0.16272634 0.06829257 0.015325837
0.15665324 0.21448427 0.1791002 0.18500303 0.20639685 -0.18215753 0.09380021 0.20803411
0.21761729 0.0805222 -0.04145639 0.15415525 0.27759477 0.086101696 0.12737359 0.10414107
0.18801078 0.085666366 0.05300229 0.06556471 0.04418037 0.0723182 0.039728906 -0.03387488
-0.07421875 0.06976932 0.015113912 -0.059425 -0.1530575 -0.11074698 -0.18834022 -0.4447213
-0.26307726 -0.18174915 0.12285507 -0.33461633 -0.2762689 -0.09826802 -0.2532749 -0.29592574
-0.31465697 -0.08676161 -0.00865243 -0.3472852 -0.42387614 -0.30241358 0.003607562 0.21643716
0.23931316 0.10757451 -0.15063591 0.22325245 0.24015662 0.5417147 0.26674786 0.0055989306
-0.008177374 -0.034689218 -0.06085356 0.0066471808 0.07386876 0.024544068 -0.013104901 0.056822404
0.02949652 -0.03257979 -0.06716435 -0.01700258 0.066372745 -0.047813993 -0.024093743 0.002342577
-0.030257892 0.056105696 -0.054187294 0.0010490678 0.0015248958 0.06234108 0.06783369 0.028625235
-0.42375904 -0.1005991 0.21186344 -0.094581634 -0.12889415 -0.25685927 0.035307985 0.12261065
0.004633043 0.11996762 -0.10640144 0.22681153 0.22239532 0.2648027 0.27360573 -0.11998081
0.08777309 0.04374376 -0.053515192 -0.11230203 -0.08043332 -0.15638354 -0.29671752 -0.27457535
-0.29664508 -0.060071763 -0.23286559 -0.20749643 -0.06758861 -0.045981888 -0.16462316 -0.103024274
0.042189766 -0.068839125 -0.18883012 -0.045500413 -0.056111686 0.121342994 0.06646307 -0.20324272
-0.20603672 0.028552292 -0.0013621188 0.16713428 -0.02775969 -0.20526652 -0.048053093 -0.023411777
-0.07360479 0.05863961 0.16498655 0.005102163 0.004041491 0.042457495 -0.16447417 0.1782992

bias f4 [20]
00000000: ba4a 25be 4c4d 62bd 7b5d 97bd 904a f1be
00000010: d43f 94be 5c76 cfbd a421 8abe dc60 79bd
00000020: dab8 edbb f61e 9ebd dfbd 52be 2303 a0bd
00000030: 19fc eabd 97cc 18bf 9d87 15bd 60da 60bd
00000040: b228 71bd ea62 84bd 1b5d 79bd b9ef 4cbd
-0.16141787 -0.055249497 -0.07390877 -0.471272 -0.28954947 -0.10129997 -0.2697879 -0.060883388
-0.007254702 -0.07720749 -0.20580243 -0.07813098 -0.11473865 -0.5968718 -0.036506284 -0.05489576
-0.0588767 -0.06464179 -0.060879808 -0.050033305

weight f4 [50, 320]
00000000: 556b a0bd 9f99 babd 81c9 1bbe b335 22be
00000010: c9f1 643c 7746 86bc 6d41 33be 4228 1abe
00000020: 029b d7bd d1db 01be 92da 59be de08 3bbe
00000030: 52dd 58be f73c 7abe 6e94 4ebe 42e8 bcbd
00000040: 5cf8 553e 0d24 0c3e 59bd 133d a44e 053d
00000050: 1772 093e 5f43 023d 74fb 8bbd 4cf8 dd3c
00000060: dc8c d8bd 792f c43c 7674 b73d 4e81 613d
00000070: 1a2e 1d3d e485 083e aacd 843d ab26 603d
00000080: 4b16 093e ac87 0ebd 25d5 e93b 506d ff3d
00000090: eb71 f33d 3d59 9b3e 8055 c53d 7170 863d
000000a0: e723 0c3d 3d36 803e de02 693e ea8e 6c3d
000000b0: f244 9d3d 5a44 163e d9ec 203d 58c6 c63c
000000c0: b079 27be 5730 63bd 6852 5bbe b7f8 cbbe
000000d0: 9dba bb3c 73ca 1abe 34c6 5bbe 4b5d 7bbe
000000e0: 9b3c 8bbe 081d b5be 5560 8cbe 73a6 92be
000000f0: 9fe7 a5be a622 e3be 6e78 cbbe d153 81be
00000100: 14be b7bc 6237 f5bb 2fb5 6d3c 391b 2f3d
00000110: a52e 61bc 3a11 b1bd f873 8b3b 6c3e 073d
00000120: 746d 44bd 3351 05bd 24b8 7e3c d1b1 803c
00000130: 61fc 3bbd d3c7 18bd 381c 2abd 6342 4f3c
00000140: 4664 0dbe 36b4 4dbd 7e21 1dbd 3893 183d
00000150: 5425 27bb a4c1 e0bc 8448 953d 6d41 973c
00000160: 8271 bcbc 2761 78bd 5e6f 1ebd a3f4 e7bd
00000170: 091b 113d e9a8 bc3b 56ce a63b ca4e 91bb
00000180: 263e 28be 0c2a 89bd ed29 fe3c bdfa e8bd
00000190: b1fe 863d c7bf 1cbd 9287 98bd 981f 93be
000001a0: 9425 4dbd 20d7 ddbd 8b7b 5ebe 26eb 59be
000001b0: 01e0 4abe 6d5c 50be 89a0 39be ad1b 4abe
000001c0: 1593 cebc 196b 95bd db9c 87ba 2c89 47bd
000001d0: 3ccc 8e3d 8ecb 31bd 376d 70bc 7b64 9cbc
000001e0: fdd2 ad3d ce1d 3a3c 4441 4ebd c55b 02bd
000001f0: e231 503d aec6 b43d 3105 fa3d d5ed e53d
00000200: 5954 b23c 4266 c93c 5de4 0cbb 48c5 cebc
00000210: 98e5 2abd 2c1f 1e3d cb5a 7fbc e7e3 a0bc
00000220: 6dac 213d 5ea3 333c f8df fcbc a4c4 ce3c
00000230: 6f54 683d e5c6 adbc 0c88 34bd b5be 2c3d
00000240: 735a 67bc 821d 45bd 2d28 82bd 9afc 89bd
00000250: 394a 163d 55c5 a83d 833e 873c c6ea 053d
00000260: 6049 d3bd 91fc e3bd 1885 3fbd 48ad 9ebd
00000270: 0c6a ae3c 02e3 0dbd 164f 133d 74ae 75bc
00000280: d62b ecbb 9f6b ed3d 65a2 b23d 6a3b a5bc
00000290: 85d2 47bd e012 003e 7375 283e ce85 c53c
000002a0: 719d bb3c 82dd b83d c705 80bc dc04 623c
000002b0: e709 13bd a732 5ebd ace5 8cbc cc69 03be
000002c0: 7847 563e 3f4c 0b3e 6ce4 773c 9809 1e3d
000002d0: e19b 81bd c2c0 b5bc 5c64 7bbc f321 d13d
000002e0: c207 0fbd d686 3f3d 5d85 fc3c 4884 213d
000002f0: ea0d cd3d bf4d e43d 7fd6 963c fdf9 90bc
00000300: 2611 503e d712 743e 173f 193d ea22 78bd
00000310: 3a5f 253e 4362 773e 60e9 b6bd 9731 64be
00000320: 0c0b cd3d b0cc 1d3e f879 9c3a 0e4c 17be
00000330: fed7 45be c852 55bd 2076 d439 219a a3bd
00000340: 8770 5f3d ac38 1c3d 5a34 51bd 82ff 89bd
00000350: 3768 56bd 9d88 f2bc c144 4c3d 246c 0a3c
00000360: efb3 9abc 3bd4 15be ee03 24bd 8561 89bd
00000370: e698 93bd ce24 9c3a 58e8 5b3c c7ad d2bd
00000380: 09aa c4bd cded b2bd fe09 a5bd 6041 c4bd
00000390: cb2c 3abd 2d85 5fbd 3909 fe3c 2b2a 38bd
000003a0: 9ef4 e9bd cd86 11be df23 e6bb 58ad 373c
000003b0: 54d7 05be aada 33bd c8d2 53bd 8842 15bd
000003c0: 90a2 a23e a818 763e 3d8b db3d 1deb ec3d
000003d0: a513 7a3e 5b46 963d aa7b 143b 6e84 403e
000003e0: 8fce 133e bf53 233d 9005 d73d bcaa 223e
000003f0: eec4 1b3e a1cc 883e 7cfd 823e 331b 043e
-0.07832972 -0.09111332 -0.15213586 -0.15840797 0.013973662 -0.016391022 -0.17505427 -0.1505442
-0.10527612 -0.1268151 -0.21274784 -0.18265101 -0.21178177 -0.24437319 -0.20173809 -0.09223987
0.20895523 0.13685627 0.036069248 0.0325457 0.13422428 0.03180253 -0.0683507 0.027095936
-0.10573742 0.023948418 0.0895776 0.055054955 0.038374044 0.13332325 0.0648454 0.054724377
0.1338741 -0.034797356 0.0071360045 0.124720216 0.118869625 0.3034152 0.096354485 0.06564415
0.034213927 0.2504138 0.22755 0.05775348 0.07679166 0.14674512 0.039288376 0.0242645
-0.16355014 -0.055466022 -0.21418154 -0.39838192 0.022916133 -0.15116291 -0.21462327 -0.24547307
-0.27194676 -0.35373712 -0.27417246 -0.28642616 -0.32403275 -0.44362372 -0.39740318 -0.2525926
-0.022429504 -0.007483409 0.01450853 0.04275057 -0.013744031 -0.08645864 0.004255768 0.033018515
-0.047955945 -0.03254814 0.015546832 0.01570979 -0.045894984 -0.037299942 -0.041530818 0.012650105
-0.13807783 -0.05022069 -0.03836202 0.037249774 -0.0025504427 -0.027436085 0.07289222 0.018463815
-0.023003343 -0.060639527 -0.038680427 -0.113259576 0.035426173 0.0057574403 0.005090515 -0.004434441
-0.16429958 -0.06697473 0.031025851 -0.113759495 0.06591547 -0.03826883 -0.07447733 -0.28735042
-0.050084665 -0.108320475 -0.21726815 -0.21281108 -0.19812013 -0.20347758 -0.18127646 -0.1973712
-0.025216619 -0.07295818 -0.0010346429 -0.0487148 0.06972548 -0.043407016 -0.014674476 -0.019090882
0.084875084 0.011359645 -0.05035521 -0.0318258 0.050828822 0.08826958 0.122080214 0.112270035
0.021768736 0.024584893 -0.002149842 -0.025240555 -0.041722864 0.038603947 -0.015585612 -0.019639922
0.03947108 0.010964243 -0.030868515 0.02524025 0.056721147 -0.021213004 -0.044075057 0.04217406
-0.014120686 -0.048123844 -0.06355319 -0.06737633 0.036691878 0.08240763 0.0165093 0.0326946
-0.103167295 -0.111321576 -0.046757787 -0.077478945 0.021290801 -0.03464032 0.035964094 -0.014995206
-0.007207374 0.11592793 0.087223805 -0.020169932 -0.04878475 0.125072 0.16451053 0.024111655
0.022902222 0.09026624 -0.015627755 0.013795104 -0.035898115 -0.054247525 -0.01719936 -0.12833327
0.209257 0.13603304 0.015130144 0.038583368 -0.0632856 -0.02218664 -0.015343752 0.102115534
-0.034919508 0.04675945 0.030825311 0.039432794 0.100124195 0.111476414 0.018412827 -0.017697329
0.20319042 0.23835312 0.037413683 -0.06058017 0.16149607 0.24158578 -0.089312315 -0.22284542
0.10011873 0.15410113 0.0011938205 -0.14775106 -0.19320676 -0.0520809 0.000405238 -0.07988382
0.054550674 0.038139984 -0.051075317 -0.067381874 -0.05234548 -0.029606158 0.049870256 0.008448634
-0.018884627 -0.14631741 -0.04004281 -0.067080535 -0.072068974 0.0011912824 0.013422094 -0.10287052
-0.09602744 -0.08736763 -0.080585465 -0.09582782 -0.045452874 -0.054570366 0.031010257 -0.04496209
-0.1142361 -0.14211579 -0.007023319 0.011210762 -0.13070422 -0.043909706 -0.05171469 -0.036440402
0.3176465 0.24032843 0.10719917 0.11568282 0.24421556 0.07337638 0.0022656717 0.18800518
0.14434265 0.03987479 0.10499108 0.15885442 0.15211841 0.2671862 0.25584018 0.12901

bias f4 [50]
00000000: 5057 04be 5d57 8cbd f828 433e 9b88 d73b
00000010: e43f 95be 0ad6 123d 4a5e efbd 2c89 c0bd
00000020: ddb8 e7bd bcc2 bcbd aae0 d9bc 5be3 9b3d
00000030: 9135 213d 4c60 903d e502 d1bc 0bf7 943d
00000040: 9f65 00be 454d a4bc 87a8 62bd d8fa 93be
00000050: 8b8d d0bc 0b82 98bd 9216 a3bc 7c67 993d
00000060: c62e 3c3d f46d 80bd f2ca 7e3c 2633 353e
00000070: e124 0ebd 8193 df3c e636 243e f747 a4bd
00000080: 81b9 2fbd ad5f 04be e8a6 86bd bbf6 bdbd
00000090: 7f20 923d cf13 18be 734b 0abe 623b bcbc
000000a0: 2a8c 303d 8808 a03c 9ec2 5a3e aec4 ed3c
000000b0: c332 ec3c 6bd6 cfbd 6b62 f03c 6c0c 4d3e
000000c0: fae7 daba 7868 d5bd
-0.12923932 -0.06852601 0.19058597 0.006577564 -0.29150307 0.035848655 -0.11687906 -0.094011635
-0.11314557 -0.0921683 -0.026596386 0.07611724 0.039357726 0.07049617 -0.025514076 0.07273682
-0.12538765 -0.020056376 -0.0553365 -0.28902316 -0.025458118 -0.07446679 -0.019908223 0.07490441
0.045943044 -0.06270972 0.015551316 0.17695293 -0.03470314 0.027292015 0.16036567 -0.08021539
-0.04290152 -0.12927122 -0.065748036 -0.09275576 0.071351044 -0.14851306 -0.13505344 -0.022977535
0.04310242 0.019535318 0.21363303 0.029024448 0.028832799 -0.10148319 0.029343804 0.2002427
-0.0016701214 -0.104203165

weight f4 [10, 50]
00000000: d9e6 ca3d c309 06bd 3688 10bf 87eb 19be
00000010: a851 463f 6a2d 5cbe c1aa 4b3e 002e 453e
00000020: 0f6c 363e 7dc0 983d e7b9 543e 8fcc 0d3e
00000030: f485 a43d a6f6 b7be d3cd cf3d e03d 033e
00000040: aaa6 febb 65ec d93c e4b7 b23d f924 aa3e
00000050: 81ac 7abc b3b1 aabc 5b21 473e dce6 8d3d
00000060: fe87 adbc dd67 683e b1d5 34be a456 51be
00000070: 4573 85be dcc2 17be cbb6 613c 0ca9 1a3e
00000080: 43ed 3d3e 26e8 503e 9fb2 31be c086 013f
00000090: feac 4cbe a180 4c3e 4ae9 be3e 0d34 fbbd
000000a0: a435 b9bb 295e 3abe 0c6a 9dbe 6bad 4e3e
000000b0: b4e2 823d b229 de3e 77ca 163e 6add b7be
000000c0: 4023 43be 8174 273e 9cc6 853e 141d 21bf
000000d0: bf3e 9bbf 3fb1 8bbd 2a67 c53f 5a5f b5bd
000000e0: e79e 163f f89a 4c3e fa5d 07bf 92a4 d63e
000000f0: f2f1 4bbe 5300 033f 9773 d73f 516d 993e
00000100: e86d d93f 07a7 b2be c973 03bf feda 48be
00000110: 1cc3 d7be cd7f 57bf 3740 d13d 262c 103d
00000120: da99 8a3f 6bbb 4bbe a460 39bf be26 b23e
00000130: 4a63 b2bf 4a25 02be 97e3 a8be 7db7 34bd
00000140: bef8 743f d17d ab3e 2191 b1be e50c 543f
00000150: 03e9 71bf 7eb4 1f3f 9605 a3bf 9655 903e
00000160: 3336 5cbe f6a6 a23e 4a1d 0a3f 6ad8 9ebf
00000170: 5847 c43e 4fa2 073f 8300 4f3f c263 8f3f
00000180: 5048 6a3f bb33 b83e 8a53 b1bf 674e 0ebe
00000190: 2faf 59be a7f0 04bf 25c3 fb3f 21bc b43e
000001a0: ef0e c6bf b5eb 1b3f ab83 dfbe c3ac 04bf
000001b0: 07d8 24bf 5abe 3c3e 9405 36bf 9380 acbe
000001c0: 5212 19be fcbe 853f 1bbd a83d 0b45 4cbf
000001d0: dafe 80bf 43aa 4bba ab3b f8be 9543 e3bf
000001e0: eeb4 f0be e694 183d b62c c2be 3492 8e3e
000001f0: 5c07 00be 5696 3ebf 44e2 07bf 4152 5f3d
00000200: b531 923e 5e95 2c3f b2f1 c23d 9509 f3be
00000210: fb26 c0bf 479a 5bbf 9a4b 24bf 5491 debf
00000220: 8af9 513d 1544 83bf 5b50 b2bf 4c04 f83e
00000230: 0f91 e03e 8f69 1d3f 9807 aa3e 3978 f3bd
00000240: bbd8 5d3f 649d a3bf 92fe db3d 892f 0d40
00000250: e69b 15be b59b 6cbe 6037 9b3e cc52 04bf
00000260: 43ed 16bd 69b4 d1bd d165 5d3e cea8 b93e
00000270: ab21 4abd 1fa8 da3d 4ab5 f3bd beb6 863e
00000280: 62cc bfbe db71 163e 5bfc 923e 9e72 e53e
00000290: d0f8 0f3f b90c 32bf e546 03bf cd57 8e3e
000002a0: 8afa bcbe 80f3 ebbe 1400 96be 2097 003f
000002b0: bec6 62bd 59fc 90be de20 10bf 8168 1f3c
000002c0: b7b8 0ebf 1a2b 8abe 8ddb 733e 2879 103e
000002d0: 9c1d 823e 44e4 edbd 69ce 01bf 6999 893e
000002e0: d5f7 cebe 8f6d d83d 22d0 70be 1949 a2bd
000002f0: 57f2 05bf 0c7a 513e a879 833d 54a5 b5be
00000300: c5e2 2f3e 8782 ac3d 494a be3e e7b4 f7bb
00000310: 6e16 bd3e ae78 c33e d819 0ebf 2620 c13e
00000320: 4863 3fbe 1158 2c3f 19cd e23f e827 f73e
00000330: ad4e 38c0 f802 3d3d 6935 31bf 4187 68bf
00000340: be36 a8bf 2d48 14bf 1c2d f6be 04d8 88bf
00000350: 561d 5abf 8ead 1a3f cc77 71bf d661 02bf
00000360: 7aed 0abf e45f 3a3e cf90 ac3d 6ffe 83be
00000370: d267 693e dc0b c53e 81a4 13c0 7d51 1fbf
00000380: 1057 8b3e 0453 edbf 0d3c 923f acf2 8a3f
00000390: ad82 263f 598e a13f f5b9 b8be 1c53 6dbf
000003a0: 5ffb a8be 1e78 a4bf 577a 063f d3de 10c0
000003b0: 31fc 803f 53f3 1bbf 4794 88bf 4b1e 26bf
000003c0: 878c 1cbe 0ca0 5d3f 0dab 34bf fd2a 25be
000003d0: 48fa 4fbe 5e2f febf f2df 3abf 6e9f ac3f
000003e0: 43c4 433e fa18 9cbf cbec ecbf f0a6 cd3e
000003f0: d1a6 1840 391d be3e bfa0 75c0 b89b a8bd
0.09907312 -0.032724153 -0.5645784 -0.15031253 0.7746835 -0.21501699 0.19889356 0.19255829
0.17814659 0.07458589 0.20774041 0.13847564 0.08033362 -0.35930365 0.1014668 0.12816572
-0.0077713327 0.02660198 0.087264806 0.33231333 -0.015299917 -0.020836687 0.19446318 0.069287986
-0.02118301 0.2269587 -0.17659642 -0.20443207 -0.26064506 -0.14820427 0.013776491 0.15103549
0.1854754 0.20401058 -0.17353295 0.5059624 -0.19987866 0.19970943 0.3728736 -0.12265787
-0.0056521464 -0.18199982 -0.3074497 0.20183341 0.063908964 0.43391186 0.14725672 -0.35911113
-0.19056416 0.16353036 0.2612809 -0.62934995 -1.2128524 -0.068209164 1.5422108 -0.088560775
0.58836216 0.19980991 -0.5287777 0.41922432 -0.19916514 0.5117237 1.683215 0.29966214
1.6986666 -0.34893057 -0.5134855 -0.19614789 -0.42141044 -0.84179384 0.10217326 0.035198353
1.0828202 -0.19895713 -0.72413087 0.34795183 -1.3936551 -0.12709537 -0.32986137 -0.0441203
0.9569205 0.33494428 -0.34681037 0.82832175 -0.9449617 0.62384784 -1.273608 0.28190297
-0.2150505 0.31768006 0.5395094 -1.2409794 0.3833568 0.5298204 0.80860156 1.1202319
0.9151659 0.35976967 -1.3853619 -0.13897096 -0.21258233 -0.51929706 1.9668928 0.3529978
-1.5473307 0.60906535 -0.43655142 -0.51826113 -0.6439213 0.18431988 -0.7110226 -0.33691844
-0.14948395 1.0448909 0.08239194 -0.7979285 -1.0077775 -0.00077692064 -0.48483023 -1.7754999
-0.47013038 0.037251376 -0.37924737 0.2784592 -0.12502807 -0.74448144 -0.5307963 0.054521803
0.28553548 0.67415416 0.09518756 -0.47468248 -1.5011896 -0.85782284 -0.6417786 -1.7388101
0.05126337 -1.0255152 -1.3930773 0.48440778 0.4386067 0.61489195 0.3320892 -0.11888165
0.8665883 -1.2782407 0.10741915 2.2060263 -0.14610252 -0.23106273 0.30315685 -0.5168884
-0.036847364 -0.10239489 0.21620871 0.362616 -0.049348515 0.10676598 -0.118998125 0.26311296
-0.3746062 0.1469187 0.28708157 0.44814008 0.5623903 -0.69550663 -0.5128005 0.27801362
-0.36909896 -0.46084213 -0.29296935 0.502306 -0.055365317 -0.28317526 -0.5630015 0.0097295055
-0.557506 -0.2698601 0.2381422 0.14108717 0.25413215 -0.11615804 -0.5070558 0.26874855
-0.40423456 0.10567772 -0.23516896 -0.079240985 -0.52322906 0.20456713 0.064196885 -0.35477698
0.1717635 0.084233336 0.3716605 -0.007559407 0.36931175 0.3817801 -0.55508184 0.3771984
-0.18690217 0.6732188 1.7718841 0.48272634 -2.879802 0.04614541 -0.6922212 -0.9083138
-1.3141706 -0.5792263 -0.4808129 -1.0690923 -0.85201013 0.60421073 -0.9432342 -0.50930536
-0.5426861 0.18200642 0.084260575 -0.25780055 0.2279351 0.3848561 -2.3069155 -0.62233716
0.2721486 -1.8540959 1.1424576 1.0855308 0.65043145 1.2621566 -0.36079374 -0.9270494
-0.3300428 -1.2849157 0.52530426 -2.2636 1.0076963 -0.6091816 -1.0670251 -0.64889973
-0.15287982 0.8657234 -0.705735 -0.1612968 -0.20310318 -1.9858205 -0.72997963 1.3486154
0.19117837 -1.2195122 -1.8509763 0.40166426 2.3851817 0.3713167 -3.8379362 -0.08232826

bias f4 [10]
00000000: 9c7b 7abe dd7f 553e 7540 893e 3188 8e3d
00000010: aab7 1e3e 4818 393d 8a52 19be a54d 36be
00000020: ccbd 0cbe 43b1 37be
-0.24461216 0.20849557 0.2680699 0.0695957 0.1549975 0.045189172 -0.14972892 -0.17803057
-0.13744277 -0.17938714

weight f4 [5, 10]
00000000: b49e a3bd e683 583e ead1 bbbd 2080 303e
00000010: 10dc 9ebc a364 3cbe d22e 6cbe 88ed 8c3d
00000020: 87a8 94be 786b 57bd 9f89 a13e 50ab 1a3e
00000030: d0a4 debc 6e97 313e 6008 d1bd 0253 223e
00000040: cebe 6a3e 58e1 9bbe dad4 203e e063 003d
00000050: 2036 c83c 8ee5 443e cdc9 8c3e 6674 88bd
00000060: 1f4b 993e 4ccd c2bd d760 8b3e 30de 323d
00000070: d2a5 553e 7a8a 693e f8a5 963d 80a7 aabb
00000080: 5ae5 443e 826c 13be aef1 0e3e d094 f6bc
00000090: 8ccd 51be d8d7 173e 20d1 36bc 8fff 9abe
000000a0: 7809 363e a9c7 36be 2a34 583e 46fd 443e
000000b0: d762 31be 481f 4f3d 27d3 84be c0fa 76be
000000c0: cc42 d73d 950a 9b3e
-0.079892546 0.21144065 -0.09170897 0.17236376 -0.019392043 -0.18397765 -0.23064736 0.06881243
-0.29034826 -0.052592725 0.3155031 0.15104413 -0.027178198 0.17342922 -0.102066755 0.15851977
0.22924349 -0.3044536 0.15706196 0.03134525 0.024439871 0.19228193 0.27497712 -0.06662826
0.29940125 -0.095118135 0.2722232 0.043668926 0.20864037 0.22806731 0.07355875 -0.005207956
0.19228116 -0.14396861 0.13959381 -0.030100256 -0.20488566 0.14828432 -0.011158258 -0.302731
0.1777705 -0.17849602 0.21113649 0.19237241 -0.1732286 0.05056694 -0.25942346 -0.24119091
0.10510787 0.3028151

bias f4 [5]
00000000: 8be5 89be 6da2 86be 80ed 793b bd7d 1cbe
00000010: f2d9 493e
-0.2693294 -0.26295796 0.0038135946 -0.1528234 0.19712046
